Task31/PyTorch_model_to_ONNX/my_image_classifier.onnx (onnx, 267677 bytes, 10 tensors)

conv1.weight f4 [6, 1, 5, 5]
00000000: d818 f83c 6d42 9abd 50c6 07bc 3034 a43c
00000010: ac32 313d a08d 773c e167 2b3e b2e3 823d
00000020: 27ad a8bd d0f1 16be 18a7 d5bc c0b6 3a3b
00000030: 99b7 113e e8a9 033d b245 943d 9326 32be
00000040: d5e5 1a3e 6baf 003e c61c f73d 666d 23be
00000050: f448 1abd 335d a2bd 0082 70bd 5251 ad3d
00000060: 74aa 303d 729c a93d 0030 513b aee6 28be
00000070: 604e 173d 6314 d7bd 148b 01be 1e0e 833d
00000080: 46dd 07be 11bb 103e c3af 223e d74b 273e
00000090: 50ec 17bc 905e 1dbe 607b 7e3c 50b7 48be
000000a0: aebe d23d 804d cb3a 0d15 253e 20ee 163d
000000b0: 9304 173e 3355 d6bd c719 dfbd 8158 373e
000000c0: e985 2a3e 792c 443e 0085 93bb a002 55bd
000000d0: 271d c6bd 7422 493d 285d 05bd be65 29be
000000e0: fd2e f1bd 3099 6fbc 2ef9 03be bfd5 0d3e
000000f0: 673b 153e 6e9f 14be a8e8 853c a8c1 e4bc
00000100: f405 2ebd 9da2 053e fd60 debd 0c96 05be
00000110: 95f4 18be 428d 913d fe5e f13d 00d9 c43b
00000120: 60d6 293c f670 8dbd f2b5 dd3d 4ac0 e8bd
00000130: f3a0 4abe 0a4b c43d 2894 b83c e484 8fbd
00000140: d3f9 36be 02e6 b93d 49ed 313e 8000 f3bd
00000150: f2ca f83d 9a4c c03d f09b bf3c 3887 1cbe
00000160: 5992 143e abc7 023e 4a89 a8bd 7ea5 a33d
00000170: 68af 06bd d804 44bd 6cda 493d 6d18 f8bd
00000180: 10e7 fcbc 8720 febd 225d 913d aa65 25be
00000190: 6796 013e 3c68 753d 66fb b33d d865 e83c
000001a0: 2dca e8bd 0847 5ebd c078 9fbc a0ae 54bc
000001b0: 5e0a 833d 46c4 0abe f56c 033e 544f 23bd
000001c0: 7257 a83d 0289 a93d d5ca 133e 6230 be3d
000001d0: 7bf6 0a3e add9 11be faaf 9abd 80ff 913c
000001e0: c7c3 433e 121a 4abe ba6b a2bd 8954 143e
000001f0: 15e4 20be d8f7 41be 4fa2 213e e277 0ebe
00000200: 282e cd3c ec56 323d baec f8bd 40a0 82bc
00000210: 1341 193e 1774 a2bd 900f c0bc 6b13 21be
00000220: 93fd a6bd faf4 aabd e899 23be 9843 96bc
00000230: ecb2 31bd f74b a3bd 776e 443e 1e1a b73d
00000240: 7c06 6d3d 983d 0d3d 3d84 02be c0a7 19be
00000250: 431d 1cbe 7346 39be
0.030285284 -0.07532201 -0.0082870275 0.020044416 0.043261215 0.01510945 0.16738845 0.06391086
-0.08236151 -0.14740682 -0.026080653 0.0028490275 0.14230193 0.032144457 0.07239856 -0.17397527
0.15126736 0.12566917 0.12066035 -0.15959701 -0.03766723 -0.079279326 -0.058717728 0.08462776
0.043131307 0.08281793 0.003191948 -0.16494247 0.03693998 -0.10501935 -0.1265071 0.06399177
-0.13268003 0.1413386 0.1588736 0.16337524 -0.00927265 -0.15368104 0.015532345 -0.19601178
0.102902755 0.0015510768 0.16121311 0.036848187 0.14747839 -0.10465469 -0.108935885 0.17904855
0.16652645 0.1915759 -0.004501939 -0.052004457 -0.09673529 0.049105123 -0.032559544 -0.16542718
-0.117765404 -0.014623925 -0.12888023 0.13851069 0.14573441 -0.14513943 0.01634629 -0.027924374
-0.042486146 0.13050313 -0.10858343 -0.1304552 -0.1493705 0.07107021 0.117856964 0.0060073137
0.010366052 -0.06906311 0.10825719 -0.11364801 -0.1978796 0.09584625 0.022531584 -0.07007769
-0.17868738 0.09077074 0.17375673 -0.1186533 0.12148084 0.093896106 0.023389786 -0.15285957
0.14508952 0.1277148 -0.08229311 0.079905495 -0.032882124 -0.04785618 0.04928057 -0.12114034
-0.030871898 -0.12408548 0.07097842 -0.16152063 0.1265503 0.05991386 0.08788185 0.028368875
-0.11366687 -0.05426696 -0.019466758 -0.012981087 0.06398462 -0.13551435 0.12834533 -0.039870575
0.08219804 0.08278085 0.14432843 0.09286572 0.13570587 -0.14243193 -0.07553096 0.017822027
0.19117652 -0.19736508 -0.079307035 0.14485373 -0.15712006 -0.18942201 0.15784572 -0.13912919
0.025046423 0.043539926 -0.12154527 -0.015945554 0.1496623 -0.07932299 -0.02344492 -0.15730064
-0.08153834 -0.08347507 -0.1597668 -0.018342778 -0.043383524 -0.079734735 0.19182764 0.08940528
0.057867512 0.03448257 -0.12745757 -0.15005398 -0.15245537 -0.1809328

conv1.bias f4 [6]
00000000: 9829 afbc d4b0 153d e856 5abd eff1 41be
00000010: 5713 093e 604a 0fbd
-0.021382138 0.03654559 -0.053305537 -0.18939947 0.13386284 -0.03498304

conv2.weight f4 [16, 6, 5, 5]
00000000: 4873 b8bc 20f7 5ebc 1c44 9d3d 562f 70bd
00000010: c096 663b b001 853d 402c d03c 0801 213c
00000020: 04ed 523d 1cba 303d 2292 a03d c635 093d
00000030: e027 563c d41b e8bc abd3 0ebd 0a1b e9bc
00000040: 3d94 80bd f82c 9ebd 2c9b 41bd 4279 58bd
00000050: b82f 23bc ab94 9cbd 94a0 313d 1410 90bd
00000060: 64dd 9ebd f8d4 3cbc c0b9 d83b 6b0a 9ebd
00000070: d894 493c f034 5f3c e8c8 5d3d beb3 43bd
00000080: f4d4 723d 3649 6bbd 68ff 593d fecc 8dbd
00000090: c8a7 243d 81f4 84bd 40ac 2dbd 7800 853d
000000a0: 3071 ce3c a3f1 7ebd 2c2c 863c 78e0 80bc
000000b0: d0c2 b23c 6828 a93c d93e a0bd 1079 babc
000000c0: aeed 83bd aee4 253d 5418 8c3d e04f 5dbd
000000d0: bc12 223d d0c0 a43b 2ca6 783d 6620 273d
000000e0: 363a 96bd d4ad 223d aaae 69bd d677 933d
000000f0: 112d 69bd 14a9 c7bc b823 9d3d 6cbd d53c
00000100: 89d8 5dbd 48ea 51bc 8008 7dbc 6097 7cbc
00000110: 903e 993d 802c de3b f884 c4bc 4000 2ebb
00000120: b8eb 30bd 8e5f 91bd 303e dabb 248e 553d
00000130: 7cbe 363d b4bc 7f3d be3d 22bd 6ca4 8c3d
00000140: 792f 02bd acf8 b33c 5d01 03bd b411 743d
00000150: f317 83bd 78d6 0bbc 8065 c1bb 120a a3bd
00000160: 00d0 53bb 3849 5f3c fa05 d4bc 94b1 003d
00000170: 007f 20ba ca59 923d 7010 493c ead1 a03d
00000180: 077c 9cbd 564c 0c3d 58f6 873d d620 0f3d
00000190: 88e8 013d 6681 cebc 84f9 56bd d810 393c
000001a0: 274b 80bd 4c70 9fbc bc39 d93c 00c1 0fbb
000001b0: 14af 5a3d c09f 2a3d 108d 773d fe37 863d
000001c0: a8d0 58bd 4035 453d 8f7c 5ebd ee34 13bd
000001d0: 512e 66bd a436 853d 80fb 3b3d d878 8ebd
000001e0: 308c 36bc a054 fe3c 96ce f4bc 00de dbb9
000001f0: 2a6a 153d 3d34 3fbd 9878 67bc 52ef 993d
00000200: f5ea 3abd b55e 63bd 683e 493c b8b4 563d
00000210: d0d4 2f3d 6293 293d 7e55 f7bc d88a 8c3d
00000220: 9cae 203d 6029 273b d832 733d b05f ccbb
00000230: 9ad1 cbbc b8a4 67bd 9884 1d3d 57aa 2cbd
00000240: d37b 4dbd 455a 57bd 00b1 a53b 7a42 aebc
00000250: a8b7 84bd 4ef6 8cbd dea0 c0bc e4b1 eb3c
00000260: 90a9 a6bc 6270 9fbc d8be efbc a649 66bd
00000270: 485b 8cbd 427a 303d 6755 38bd f046 6f3c
00000280: 1082 b2bb 58fb 32bc da49 063d d07a bf3b
00000290: e83a 39bd 28bb 76bd 1443 be3c 8932 6cbd
000002a0: e003 cdbc 78a2 17bc 8efd 79bd 8062 86bb
000002b0: 743d 0fbd 7c38 6a3d 5672 96bd 96b3 a0bd
000002c0: 752c 88bd c0f9 17bb 7862 983c b007 c63b
000002d0: ce0d 4ebd 2e5f e9bc fcc7 79bd aca0 83bc
000002e0: 1aaf 55bd 7a93 8d3d dc9b 803c 28a1 763d
000002f0: da99 223d 6aa4 823d 6c57 8bbd d2b6 993d
00000300: a881 31bc 8cd0 8b3d b80e 4cbc 3c1d a2bc
00000310: 5cc4 803d a074 e23b 165e 2e3d 8012 6b3d
00000320: b860 563d 742e 79bd 50a2 543c 92db 913d
00000330: 7c64 5abd f065 313d 10b0 dbbc 60cd 84bd
00000340: b5bf 40bd f08f a1bb 16d1 bfbc 089f 5b3d
00000350: 44c7 e43c bc85 2e3d c08e 473d c07e f73b
00000360: 98a3 983c 1ceb c83c a294 a33d 5797 9abd
00000370: 60fe 1a3d 2c66 6ebd 94bf 893d b077 82bb
00000380: 8c66 0d3d 347b c63c 287c 443d 8084 a23a
00000390: 90f2 7f3d 600d 413b 008b e2bb c8f8 543d
000003a0: c636 9a3d b814 4bbc 64d9 65bd 0c08 8d3c
000003b0: 54e8 953c e46f ec3c 18d1 63bc b076 773d
000003c0: c89d 2e3d ba01 833d 962f 113d e823 81bc
000003d0: d002 263c 7ce4 903d b609 02bd 4c03 20bd
000003e0: d823 bf3c c4f2 353d 0c9c 993d 4058 8eba
000003f0: 6cae 3f3d a446 84bd a657 febc 758a 92bd
-0.022515908 -0.013608724 0.076790065 -0.058638893 0.003518507 0.064944625 0.025411725 0.009826906
0.051495567 0.043146238 0.078403726 0.033498548 0.01307103 -0.028333582 -0.03486983 -0.028455276
-0.06278274 -0.07723421 -0.047267124 -0.052850015 -0.0099601075 -0.07645544 0.04336603 -0.07034317
-0.07757071 -0.011525385 0.00661394 -0.07716831 0.0123035535 0.013623461 0.054146677 -0.047778837
0.05928512 -0.057442866 0.05322209 -0.06923865 0.04019907 -0.06491948 -0.0424006 0.0649423
0.025200456 -0.06224216 0.016378485 -0.015732035 0.02182141 0.02064915 -0.07824487 -0.022762805
-0.06441818 0.04050129 0.06840578 -0.054031253 0.039568648 0.005027868 0.06070535 0.040802382
-0.073353216 0.039716557 -0.05705134 0.07200591 -0.056927744 -0.024372615 0.076728284 0.0260913
-0.054161582 -0.012812205 -0.015443921 -0.01541695 0.07482636 0.006780207 -0.023989186 -0.0026550442
-0.04319355 -0.07098304 -0.0066602454 0.05213751 0.044615254 0.06243582 -0.039609663 0.068672985
-0.031783555 0.021969162 -0.031983722 0.059587196 -0.06401052 -0.00853502 -0.0059019923 -0.07960905
-0.0032320023 0.013628297 -0.025881756 0.03141935 -0.000612244 0.07146032 0.012271985 0.07852538
-0.07640844 0.034252487 0.06638783 0.034943424 0.0317159 -0.025208186 -0.05248405 0.01129552
-0.06264334 -0.019462727 0.026516788 -0.0021935105 0.053389624 0.041656256 0.060437262 0.065536484
-0.052933365 0.048146486 -0.054318007 -0.03593915 -0.056196515 0.065045625 0.045894146 -0.06956643
-0.011141822 0.031046212 -0.029883664 -0.00041936338 0.0364782 -0.046680678 -0.014127873 0.0751635
-0.04563423 -0.05551024 0.012282945 0.05241844 0.042927563 0.04140032 -0.030192133 0.0686242
0.03922902 0.002550684 0.05937466 -0.006236993 -0.02488022 -0.056553572 0.03845653 -0.042154636
-0.050166916 -0.052576322 0.0050565004 -0.021271933 -0.06480342 -0.068829164 -0.023514207 0.028771348
-0.020344526 -0.019462768 -0.029265806 -0.05622258 -0.06853348 0.043085344 -0.04500332 0.014604315
-0.0054476336 -0.010924183 0.032785274 0.005843498 -0.045222193 -0.06023708 0.023225345 -0.05766538
-0.025026262 -0.009255044 -0.061032824 -0.0041010976 -0.034970716 0.057182774 -0.073460266 -0.07846753
-0.066491045 -0.0023189634 0.018601641 0.006043397 -0.050306134 -0.028487768 -0.060981736 -0.016067825
-0.052168943 0.069128945 0.01569932 0.060212284 0.039697506 0.06379016 -0.06803784 0.07505573
-0.010834135 0.068268865 -0.012454681 -0.01978933 0.062874526 0.0069108754 0.042570196 0.05739069
0.052338332 -0.060835317 0.012978151 0.07121958 -0.053318486 0.043310106 -0.026817352 -0.06484485
-0.047057826 -0.0049304888 -0.02341513 0.05361846 0.027927049 0.042608008 0.04872012 0.0075529516
0.018632695 0.024526171 0.07987334 -0.07548397 0.037840247 -0.058202907 0.06725994 -0.003981553
0.034521624 0.02422867 0.047969967 0.0012399107 0.062487185 0.0029457435 -0.0069135427 0.05199507
0.075299785 -0.012395076 -0.056115523 0.017215751 0.01829926 0.028861947 -0.013904832 0.060415924
0.04263094 0.06396814 0.035445772 -0.015764192 0.0101325065 0.0707483 -0.031747542 -0.039065644
0.023332521 0.044420972 0.07500467 -0.0010860041 0.0467972 -0.06458786 -0.031047653 -0.07155315

conv2.bias f4 [16]
00000000: 3248 043d 7ce2 923d 3481 55bd f0fa 133c
00000010: b030 c33b 18ca b6bc a005 573b a3c9 51bd
00000020: 72d5 813d 0e33 9ebd 602c e63c c837 c83c
00000030: 503d cebb 2fe1 9fbd 3ccc 7e3d ee63 f4bc
0.032295413 0.07172105 -0.05212517 0.009031996 0.0059567317 -0.022313163 0.003280975 -0.051217686
0.063395396 -0.07724582 0.028097332 0.024440661 -0.00629393 -0.07806622 0.06220649 -0.029832806

fc1.weight f4 [120, 400]
00000000: 00c8 203c 0075 0b39 ea2d 93bc 3d0f aabc
00000010: 4531 453d 36b4 eb3c 1d00 fcbc c751 253d
00000020: 57d8 1f3d 33d2 0e3d 53a4 c9bc 2b42 273d
00000030: 3438 213c 59a1 093d 8136 473d b851 35bc
00000040: 71a4 2b3d 4297 0dbd 1d0d dabc dacd cfbc
00000050: 0b2f 463d ec21 3abc 9021 3ebd 2a3e 85bc
00000060: 9aa2 31bd 4873 013c 5e33 973c 518e 363d
00000070: 68b3 5abc 98a0 e6bb 820d f33c 1e17 923c
00000080: 7c46 84bc fdce 373d e847 5dbc 732c 2ebd
00000090: a069 e1ba 14ec 7c3c 8015 08bb 559f 41bd
000000a0: ed2c b1bc b516 153d 20a0 10bb 206e b7bc
000000b0: 60bb f4ba 05c9 2a3d b7b2 9bbc 8296 4bbd
000000c0: 5bb3 063d b48d 79bc baee 933c c02a 28ba
000000d0: 00dc 2dbc 41e2 363d 1b97 2cbd 6afe ec3c
000000e0: 30a7 7c3b 14a5 3cbc 60aa ae3a 36c1 df3c
000000f0: 3bfa 0e3d cb20 183d a2f6 ed3c dc11 7d3c
00000100: 70bc f23b da54 16bd e8a9 183c 2608 f53c
00000110: 002a ddbc 9639 14bd 3246 cf3c 35e4 1dbd
00000120: baff 983c 9175 203d d2b1 1fbd 97af 46bd
00000130: 8076 423a 2c5b 59bc d560 31bd ca84 14bd
00000140: a010 e53a e688 803c 3cb5 7b3c 8e54 b33c
00000150: 661e d83c aa09 fa3c 288f 803b dde7 383d
00000160: 526c a53c 8edd b73c 0cfb 243c c61b e43c
00000170: 5159 243d 7018 b3bb 2793 39bd cc0e 143c
00000180: 003d df3a 6484 5b3c acfe 563c 004c 2fbb
00000190: 8bd5 1b3d c89e 0a3c 1d18 9fbc 001d cabb
000001a0: ea44 a5bc 1dea 2abd 1818 6ebc aaf7 d63c
000001b0: 096a 4a3d 8cd9 573c 3c5e 7d3c 4825 37bc
000001c0: 06b4 c63c 1090 b5bb 28da 1ebd 0034 fcba
000001d0: b161 2d3d bd02 123d 4802 1abd a2f6 3fbd
000001e0: b2c5 a13c 1016 f4bb 0d24 033d e92d 1d3d
000001f0: 1aec 0cbd e074 0a3c 931e a5bc abbf 143d
00000200: 32fc fb3c 39c7 083d f67a 17bd a8f3 c8bb
00000210: 53b0 d9bc c329 413d 4d0a 393d 8c40 01bd
00000220: c8d2 003c 927c 963c 1999 2d3d 28d5 97bb
00000230: 7967 2d3d 0e5f 903c 940e 1fbc 8c40 3b3c
00000240: 8037 43ba 9ecb df3c b2df 8e3c 520b d03c
00000250: 0f52 293d e875 ba3b b389 f7bc 80af 5bbc
00000260: 07b8 d8bc 123e cb3c 0ff6 3abd 807e 493c
00000270: 939a 153d 4e72 8c3c 00d4 0ebc 5ab4 19bd
00000280: e866 f0bb 681c 55bc 8682 e43c f2fc b23c
00000290: 62fc 8c3c c2a9 9e3c 08e3 69bc c093 333c
000002a0: 8a43 a13c 9282 1dbd 8a00 cd3c f8e2 60bc
000002b0: 62b2 c43c d772 2fbd 40a9 28ba d8c8 8b3b
000002c0: 6e83 f43c 03a2 36bd de2a 0bbd f11a 1b3d
000002d0: 0e2b 903c 5dcb 0fbd c270 843c b0a5 88bc
000002e0: b8d4 0c3c 4ccf 04bd b95e 3f3d bebc c63c
000002f0: 4d15 273d aa40 12bd 1625 f33c 68dd d9bb
00000300: 4ddc 1abd 3012 c3bb 732f afbc b0f7 ecbb
00000310: 00c2 86bb fd4e eebc 207f 07bd 79d2 203d
00000320: e88b 423c f7eb e8bc 25b4 02bd 2e82 e63c
00000330: 6325 0b3d d47a 753c 4042 ebbc aa93 e93c
00000340: 021e aa3c c8ec 40bd ac8d 08bd 3034 fbbb
00000350: 9091 d9bb 474c e6bc c090 363a 7834 36bc
00000360: ed17 d4bc 1de9 ffbc ab23 45bd 520c c03c
00000370: a3ac 44bd 8dc4 d4bc 207e 1c3c 2215 d13c
00000380: 728e 1bbd 3634 8bbc c24e bf3c 6aba 10bd
00000390: ba7e ad3c 12b6 c83c c0c1 c23b e4d4 7a3c
000003a0: b630 d43c 0064 fab8 4fcd 36bd 795c 0e3d
000003b0: 4ac7 8c3c 2c7c 5dbc 66b3 883c 11a7 1c3d
000003c0: 9872 ef3b 0000 eb3b f37d b9bc 400e 71bc
000003d0: 34ac 7abc 0868 22bd 0836 053c 3d8b 213d
000003e0: d824 d13b 97e7 213d d24d d43c e0ed 523b
000003f0: 57cd 0e3d 4a09 b3bc 9834 873b b592 1cbd
0.009813309 0.00013299659 -0.01796623 -0.02075922 0.04814269 0.028772455 -0.030761773 0.040361192
0.039024677 0.03486843 -0.024614489 0.040834587 0.00984006 0.03360114 0.048635963 -0.011066847
0.04190487 -0.03456808 -0.026617581 -0.025366712 0.048384707 -0.011360627 -0.046418726 -0.016264994
-0.04336796 0.00790102 0.018457111 0.044569317 -0.013348438 -0.0070381872 0.029669527 0.017833289
-0.01614689 0.044875134 -0.013505913 -0.04252286 -0.0017197616 0.015437145 -0.0020764768 -0.04727109
-0.021627868 0.03639861 -0.0022068098 -0.022391379 -0.0018671565 0.041695613 -0.019006116 -0.049704082
0.03288589 -0.015231539 0.01805817 -0.00064150617 -0.010611534 0.044649366 -0.042136293 0.028929908
0.00385518 -0.011513967 0.0013325922 0.02731381 0.034906607 0.03714065 0.029048268 0.015446153
0.0074077174 -0.036702015 0.009317853 0.029911112 -0.026997566 -0.03618773 0.025302026 -0.038547713
0.018676627 0.03917462 -0.038987942 -0.0485073 0.00074181706 -0.013266366 -0.043305237 -0.03625945
0.0017476268 0.015690278 0.015363034 0.021890905 0.026381683 0.030522186 0.0039233156 0.045142997
0.020193253 0.022444513 0.01006962 0.027845275 0.04012424 -0.0054655597 -0.04530635 0.009036731
0.0017031729 0.013398264 0.013122242 -0.002674818 0.038045447 0.008460708 -0.019420678 -0.006168008
-0.020174462 -0.041727174 -0.014532112 0.026241142 0.04941753 0.013174426 0.015464362 -0.011178322
0.024255764 -0.005540855 -0.03878227 -0.0019241571 0.042329494 0.035647143 -0.03759983 -0.046866067
0.019747589 -0.007448919 0.032016803 0.03837386 -0.03440485 0.008450717 -0.02015618 0.0363156
0.030759905 0.03339312 -0.0369825 -0.0061325617 -0.026573336 0.047158968 0.04517584 -0.031555697
0.007862754 0.018369947 0.042382333 -0.0046335645 0.042335007 0.01762345 -0.009708066 0.011428963
-0.000744693 0.027318772 0.01744065 0.025396023 0.041338023 0.005690325 -0.030217027 -0.013408542
-0.026454939 0.02480987 -0.045644816 0.012298226 0.036524367 0.017144348 -0.008717537 -0.037525512
-0.007336486 -0.013007261 0.02789427 0.02184913 0.01721019 0.019368056 -0.01427532 0.010960519
0.019685525 -0.0384546 0.025024671 -0.013725989 0.02401084 -0.04283413 -0.00064339116 0.004265886
0.029847827 -0.0445881 -0.03397643 0.03786749 0.017598655 -0.03510605 0.016167048 -0.016680568
0.008595638 -0.032424256 0.046721194 0.024259921 0.0407918 -0.0357062 0.02968077 -0.006648708
-0.03780775 -0.005953096 -0.02138493 -0.007231675 -0.004112482 -0.029090399 -0.03308022 0.039263222
0.011874177 -0.02843283 -0.03191008 0.028138246 0.0339712 0.014982898 -0.028718114 0.028512795
0.020766262 -0.047100812 -0.033338234 -0.0076661333 -0.006639667 -0.028112544 0.00069643185 -0.011120908
-0.025890315 -0.031239087 -0.04812972 0.023443375 -0.0480162 -0.025972629 0.009551555 0.025522772
-0.037977643 -0.01699267 0.023352984 -0.03533403 0.021178592 0.02450088 0.005943507 0.015309546
0.025902133 -0.000119395554 -0.04462939 0.034756158 0.017184872 -0.013518374 0.016687106 0.038245264
0.007307362 0.007171631 -0.022643065 -0.01471287 -0.0152998455 -0.039649993 0.008130558 0.03943943
0.006382566 0.039527502 0.025916014 0.0032185242 0.034863796 -0.021855015 0.0041261427 -0.03822585

fc1.bias f4 [120]
00000000: a8e5 15bc e8ad f53b 4cab 683c 482b 63bc
00000010: e08c 3e3b 92d3 b43c ea33 45bd d07a fa3b
00000020: 1acd 8dbc 80a1 f239 c34b 9ebc f093 903b
00000030: 527f fd3c 589c 0fbc 27db c7bc 72b8 23bd
00000040: 1992 283d dbea 1b3d d455 62bc a046 09bc
00000050: 20f6 403b b263 9b3c 68bc 3abd 8c88 7d3c
00000060: e8aa d73b c699 8b3c b03a cf3b 4302 ecbc
00000070: 8633 2cbd 60c0 3a3c f4ff 88bc 0ac0 b63c
00000080: bd45 41bd f93c 3e3d d2c6 0bbd 4089 103a
00000090: 121e 35bd 319d 1d3d 9eb5 11bd 906b e5bb
000000a0: f0ed f9bc 2833 473c ea33 a2bc 5dee 1dbd
000000b0: a622 e13c c7cc 32bd 2d1e 47bd 902f 913b
000000c0: 896c 233d 8adb 38bd 72be a93c 0911 2e3d
000000d0: f164 3d3d 95e6 1cbd 8ac9 c73c 3378 9abc
000000e0: 806e ecbb 301d 2f3b 903a 2abd 5375 9bbc
000000f0: be9a bd3c 3a91 14bd ec56 643c 81fa 303d
00000100: 0c61 74bc 3ff3 35bd c24f a73c 4093 f7ba
00000110: 2266 42bd 003c 863a 1453 783c 96f4 863c
00000120: 30ae fcbc d39f cbbc eace ff3c 3abf c6bc
00000130: 876d 153d 2958 183d e303 2dbd d687 0dbd
00000140: 0299 f23c eac5 983c 4050 fabc 583b e9bb
00000150: 3982 0b3d 9374 153d 2c1b 61bc 9a1a 9b3c
00000160: 4761 b7bc d9dd 023d ecd7 5dbc a721 d2bc
00000170: e270 f63c dc4a 633c 309c 593b aa66 49bd
00000180: 8000 3b3b dd39 273d 3a7e 9ebc e8fa e23b
00000190: 748d 573c 6088 503b b051 fdbb 8056 71ba
000001a0: 8255 3ebd c2fa 0dbd eccd 1e3c 377d ccbc
000001b0: 9bfe 48bd 60ac 8a3a 6652 fa3c 5053 31bd
000001c0: 00a7 90bc 6494 693c 28aa a63b 1856 8abb
000001d0: 365a e83c 20a0 183c 9825 a63b 4594 06bd
-0.009148993 0.007497538 0.014200997 -0.0138652995 0.0029075667 0.02207354 -0.048145212 0.007644035
-0.017309714 0.00046278164 -0.019323235 0.004412167 0.0309445 -0.008765303 -0.024396492 -0.039970823
0.041154955 0.038065773 -0.013814408 -0.008378655 0.0029443577 0.018968437 -0.045589834 0.01547445
0.006581653 0.017041098 0.0063241348 -0.028809672 -0.042041324 0.011398405 -0.01672361 0.022308368
-0.04718565 0.046444867 -0.034125157 0.0005513616 -0.04421813 0.038479988 -0.035573594 -0.007001348
-0.030508965 0.012158193 -0.019800145 -0.0385574 0.027482342 -0.043652322 -0.048612762 0.0044307187
0.03989843 -0.045131244 0.020720694 0.042496715 0.046238843 -0.038305838 0.024388094 -0.018856144
-0.007215321 0.0026720278 -0.041559756 -0.018976843 0.023145076 -0.03627131 0.013936739 0.04320765
-0.014915716 -0.04442143 0.020423774 -0.0018888488 -0.047460683 0.001024127 0.015156526 0.01647405
-0.030844778 -0.024856484 0.031226594 -0.024261106 0.036481407 0.03719345 -0.042240035 -0.03455337
0.029613975 0.01864906 -0.030555844 -0.00711767 0.034059737 0.036488127 -0.013739388 0.018933583
-0.022385253 0.03194985 -0.013540249 -0.025650812 0.030083124 0.013872828 0.0033204667 -0.049170174
0.0028534234 0.040826667 -0.019347299 0.006926883 0.013156284 0.0031819567 -0.007730685 -0.000920631
-0.046468265 -0.03466297 0.00969265 -0.02496205 -0.049070936 0.0010579936 0.030556869 -0.043292344
-0.017657757 0.0142565705 0.005086202 -0.004221689 0.028363328 0.0093155205 0.0050703995 -0.032856245

fc2.weight f4 [84, 120]
00000000: c41e 903d 80cd 8e3a 34f2 9d3d 4c90 573d
00000010: 306c 253c 68e9 843d 2eea 00bd 1c5f 02bd
00000020: 481f 89bc b5a4 3bbd 0047 853a 4c24 87bc
00000030: 2032 16bb dc38 163d 4e3a 28bd e9bb 28bd
00000040: caf1 46bd 37d7 5cbd c89e 653c 9cc4 6d3d
00000050: 4f67 2bbd b5f9 7bbd 80c2 693d 3b9c 24bd
00000060: 9800 9e3d 28b8 b1bc 62c3 9abd 0845 05bd
00000070: 184f 19bd e019 0b3b 809f 483a 0cc5 2d3d
00000080: 578d 60bd 7072 bebb 487a 253d dc62 ba3d
00000090: 7699 91bd 2951 75bd 9c48 5f3d 3885 6d3d
000000a0: 740e 333d bcd5 6e3d 0810 603d 681f 2fbc
000000b0: 68ba be3c 10bb 373d c2aa 52bd 4e0d b83d
000000c0: 9088 313d 42f6 8f3d d0c8 febb 8079 da3b
000000d0: 10ca 553d b07b 8ebd 6036 793d ac33 003d
000000e0: eeae 0abd d4b0 b7bc 03b5 4dbd 48ad 64bc
000000f0: 9cd7 903c df14 adbd ea56 8abd f62c 003d
00000100: 9ee9 1fbd 08dc 8c3d 7831 923c 84b2 a1bc
00000110: f025 703d 9a4b a03d 2cda 183d 6e06 b83d
00000120: b21c 4bbd 4e23 ab3d d06f ba3c f80e 6f3c
00000130: bcec 9a3d 00a5 c33c e0ae 763d f21c 87bd
00000140: 4c68 f23c 2c2b 983c f73d b7bd c018 4fbc
00000150: 32a4 813d a04e cebb e630 803d 59c8 a3bd
00000160: b0ba 5b3c 9801 86bc d829 b9bd 7f7b 61bd
00000170: d89f b9bd 069a 65bd f412 353d 4c08 b4bd
00000180: 00d8 2fbb 002c cfb9 902f 9d3b c428 82bc
00000190: e83a b03d 562b 853d c058 dcbb 0cec 383d
000001a0: c0f7 b9bc e81d 92bd 9780 6cbd 40fe 24bc
000001b0: 80b0 97bd b06d d93c aa54 4ebd da15 8a3d
000001c0: e8f3 533c 7f1f a1bd e008 82bd c823 a1bd
000001d0: c883 7a3c a29f 863d 3e4b b5bd 147e 68bd
000001e0: 20f1 34bd 04ba 443d c8de 213c 406f 45bb
000001f0: 9c67 7f3d 2806 643c 6063 99bd a8e2 1bbc
00000200: 7074 e23c 5c77 803d 4024 55bc 24d2 803c
00000210: 18ad ef3c dc6e 74bd b45d a2bc cc01 e2bc
00000220: 478d 69bd 1212 af3d 8cf1 e03c a071 ef3b
00000230: 67c1 25bd 720c 16bd 8084 7f3b 146c 493d
00000240: 3613 853d 50d6 36bc 007c 8038 b03b 903d
00000250: a397 6fbd ecaf 583d 94c5 88bd 28e2 983c
00000260: 1c1d 583d c742 0abd 1a75 063d 5ac2 a03d
00000270: 0091 a0bb 3c61 0abd 14c1 5e3d 4051 a73a
00000280: 1c03 cdbc 4a7c afbd 0854 983d 2292 51bd
00000290: 4069 d03c b6f3 923d b691 973d 7aaa 8f3d
000002a0: 60f1 4f3d 28ee 8abd 20fc 09bc 8e7f 2ebd
000002b0: 787b a73d 245d 4f3d 7da6 6abd 04a7 b93d
000002c0: c442 9a3c a8da a8bc 4e7f 9fbd b8c1 2b3d
000002d0: 6080 e53b 9a87 40bd 94d0 a03d b054 693d
000002e0: 2080 863b d8f4 c7bc 18cc 143c 04f3 babc
000002f0: c0bb a9bc 409e de3a 944a a23d 3451 8c3d
00000300: f826 673d 82a0 97bd ae58 ac3d 64f3 8a3d
00000310: 86bb 4cbd 9bf5 b0bd 680f 6bbc ac5f 5d3d
00000320: 04e2 54bd 0020 6e3c 00c4 363c 505d e93b
00000330: ec6b 9d3c 0ef2 85bd 04e1 84bc 1ba7 b0bd
00000340: f30c a1bd 344e c8bc 2226 b93d 58a5 f93c
00000350: cb2c abbd 4852 0d3d d8fa 7f3c c8f9 ae3c
00000360: f0a6 1dbc 3c91 ad3c d40a 763d 3877 3c3d
00000370: bc91 24bd d045 6c3d 4033 953d 60e0 513c
00000380: 280a 6a3d 544e e4bc b80e 963d a0e2 fb3c
00000390: 0450 9fbc 946d 803d 7242 1bbd 7086 38bc
000003a0: 8ce1 9d3c b867 253d 107e 4a3c 0451 e6bc
000003b0: 10c6 463c 6004 07bb 342b 413d dc77 583d
000003c0: 4861 423c 20fe 503d 9053 2e3d 8e36 86bd
000003d0: 381d 733d 3c9e 253d 223e 83bd 0008 5cba
000003e0: f003 f1bb 44e7 babc e074 36bc d430 2a3d
000003f0: 70d0 82bd 0c16 7a3d 28b6 09bc 40ef 983d
0.07037118 0.0010894984 0.07712212 0.052627847 0.010096595 0.06489831 -0.03147333 -0.031828985
-0.016738549 -0.045811374 0.0010168254 -0.0164968 -0.002291806 0.03667532 -0.04107123 -0.04119483
-0.04857043 -0.053916182 0.014014907 0.05804883 -0.04184657 -0.061517436 0.057070255 -0.040188055
0.07714957 -0.021694258 -0.075567976 -0.032536536 -0.037428945 0.002122514 0.0007653162 0.042424247
-0.054822292 -0.005811982 0.04039982 0.09100887 -0.071093485 -0.059891853 0.054512605 0.057988375
0.043714955 0.0583093 0.05470279 -0.01068864 0.023282245 0.04485613 -0.05143238 0.08986913
0.043343127 0.07029392 -0.0077754036 0.006667316 0.052194655 -0.06957185 0.06084287 0.03129928
-0.033858232 -0.022423185 -0.050221454 -0.013957329 0.017680936 -0.084512465 -0.06754859 0.031292878
-0.039041154 0.06877905 0.017845854 -0.019738443 0.05862993 0.0782692 0.03731744 0.08985601
-0.049587913 0.08356343 0.022758394 0.014590971 0.07564685 0.023882389 0.060225368 -0.06597318
0.029590748 0.018575273 -0.08947366 -0.012640178 0.06330146 -0.006295994 0.06259327 -0.07997198
0.013411209 -0.016358182 -0.09041184 -0.055049416 -0.09063691 -0.05605509 0.04420753 -0.08790645
-0.0026831627 -0.000395149 0.0047969297 -0.01588858 0.086049855 0.06502406 -0.006724447 0.045146987
-0.022701144 -0.071346104 -0.05773982 -0.010070384 -0.074067116 0.02654156 -0.05037371 0.06742449
0.01293657 -0.078673355 -0.06349349 -0.07868153 0.015290208 0.06573416 -0.08852242 -0.056760862
-0.044175267 0.04802896 0.009879775 -0.0030126125 0.06235467 0.013917483 -0.074896574 -0.009514488
0.027643412 0.06272766 -0.013009131 0.015725203 0.029257342 -0.059676036 -0.019820072 -0.027588747
-0.0570195 0.085483685 0.027458929 0.0073072463 -0.040467646 -0.036632963 0.0038988888 0.049175337
0.06497805 -0.0111594945 6.1266124e-05 0.070426345 -0.05849422 0.052902147 -0.0667831 0.018662527
0.052762136 -0.03375509 0.03282652 0.078495696 -0.004900098 -0.033784136 0.054383352 0.0012765303
-0.025025897 -0.08568628 0.07437903 -0.051164754 0.025440812 0.071753904 0.07400839 0.07014938
0.050767303 -0.06783706 -0.008421928 -0.042602114 0.08177847 0.050625935 -0.05728768 0.09065059
0.018830664 -0.020612076 -0.07787953 0.04193279 0.007003829 -0.04700432 0.07852283 0.05696553
0.004104629 -0.024408743 0.009081863 -0.022820957 -0.020719409 0.0016984418 0.07924381 0.06851426
0.056433648 -0.07403661 0.08415352 0.06784704 -0.049983524 -0.086405955 -0.014346935 0.054046318
-0.051973358 0.014533997 0.0111551285 0.0071217194 0.0192165 -0.06540309 -0.016220577 -0.08625623
-0.07863798 -0.024451353 0.090404764 0.03047435 -0.08358153 0.034502298 0.015623771 0.02135934
-0.0096223205 0.021187417 0.06006892 0.046012133 -0.040178046 0.057683766 0.07285166 0.012809843
0.057138592 -0.027869381 0.07327026 0.030747712 -0.019447334 0.062709 -0.037905164 -0.011262521
0.019272588 0.040382117 0.012359157 -0.028114803 0.012132183 -0.0020601973 0.047160342 0.05284868
0.011864014 0.051023602 0.04256016 -0.06553374 0.059354037 0.040434107 -0.06408335 -0.0008393526
-0.0073552057 -0.022815354 -0.011136264 0.041550472 -0.063874125 0.06105618 -0.008405246 0.07467508

fc2.bias f4 [84]
00000000: c0da c7bb f408 59bd ecb9 1f3d f034 a83b
00000010: 816f a5bd 38cd 683d 341a fe3c 544c d6bc
00000020: 346f 003d 48ed acbc a02a 71bd ef6e 8ebd
00000030: 72e4 09bd ee09 a93d 58e0 1b3d 703a acbd
00000040: fced 92bc 1401 b83c 9043 653d 646d 7e3d
00000050: b8b9 1b3d 01c5 24bd f4aa 8c3c d89c 0f3d
00000060: bc4a 973d ec46 213d f025 053d 9c0a ed3c
00000070: acb8 903d e099 adbd 70c6 9b3d 6097 2abc
00000080: 7086 82bc 4816 483c 3c02 223d ba0a 883d
00000090: 380b a93d 6ae3 9c3d d0c1 a23b a017 9abd
000000a0: 9843 ee3c 3451 3a3d 9679 b03d 1ac4 55bd
000000b0: f099 3a3d d206 05bd 249c 293d dad0 0cbd
000000c0: e4ee acbd 1304 73bd 5025 9a3d 7c93 8d3c
000000d0: b8bf a03c 0822 87bd ac8c 4a3d 70ab 273d
000000e0: 9df8 51bd 340b 543d 807f f6bc 5812 08bc
000000f0: cea4 f7bc 0414 473d 3ea8 963d 961f 8b3d
00000100: 501f 573d e2c2 913d 886d 90bc 1c11 82bd
00000110: c05b e53b 0ab0 a53d 6804 663d 50bc 9d3b
00000120: d9fa aabd 40b2 70bd ec8b d93c 121b 7fbd
00000130: 607a 97bc 0029 da3a d841 46bc 5440 a7bd
00000140: 5c57 87bd 0c45 88bc 18ce 673d d42e 6fbd
-0.006099075 -0.052987054 0.03899567 0.0051332638 -0.08077908 0.056836337 0.031018354 -0.026159443
0.03135605 -0.021109238 -0.05887854 -0.06954753 -0.033665128 0.08253847 0.038055748 -0.084095836
-0.017935745 0.022461452 0.055972636 0.06211604 0.038018912 -0.04022694 0.01717136 0.035061687
0.07387301 0.039374277 0.032506883 0.028935723 0.07066473 -0.08476615 0.07606208 -0.010412067
-0.015933245 0.0122123435 0.039552912 0.06642671 0.08254093 0.07660563 0.004966952 -0.07524037
0.029084966 0.045487598 0.08616941 -0.05218897 0.045556962 -0.032477207 0.041408673 -0.034378864
-0.08444002 -0.059330057 0.07526648 0.01728224 0.019622669 -0.06598288 0.04945056 0.04093498
-0.051262487 0.051768497 -0.030090094 -0.008305155 -0.030229952 0.048603073 0.073563084 0.06793134
0.052520096 0.07117249 -0.017630354 -0.063509196 0.006999463 0.080902174 0.056156546 0.0048137084
-0.08348627 -0.058763742 0.026555978 -0.062281676 -0.01849097 0.0016644299 -0.012100659 -0.081665665
-0.06608459 -0.016634487 0.05659303 -0.05839427

fc3.weight f4 [10, 84]
00000000: 81a2 d93d 9c47 89bd 0913 68bd e2f7 84bd
00000010: 6c89 2bbd 4a2a a5bd c184 903d 7f72 87bd
00000020: 5e8e 783d d374 a93d 80f1 09bb 087b abbd
00000030: 8043 f7bc 2918 d8bd 7cfc dfbc 0fd3 b13d
00000040: 004e 1cbb 88ab 91bd 43f2 cbbd 772b c2bd
00000050: 408c 3e3b 3bd8 a83d e27b 32bd aa40 523d
00000060: bb98 9a3d bc05 9bbc 4feb cb3d 96aa 493d
00000070: 1e93 593d 148f a3bc 7698 53bd 6a6f 1f3d
00000080: c721 a83d b838 6c3c 7e6e 703d f64a 603d
00000090: cac9 503d 592d c13d 02d1 b2bd 6caf c03c
000000a0: a855 233c 883c acbc 5e08 3a3d b03b 763c
000000b0: 48d6 44bc 00cb 9e3a f34f de3d 5433 6dbd
000000c0: d21d 65bd 0055 f8b9 68b0 12bd 3326 b83d
000000d0: e468 debc 01c0 b9bd 7cf6 8d3c 42ab 93bd
000000e0: 9cb4 0dbd 08b5 5c3c 40a0 a63b f820 9fbd
000000f0: fc9b 10bd 492a ae3d aa12 69bd 61c5 b9bd
00000100: 7099 babd cc61 ed3c e840 89bd 38b4 bfbc
00000110: 3732 b53d 3abb 12bd 5c4f 0dbd 51af b53d
00000120: ca38 1b3d 4212 28bd 4c8a b93c 892f c63d
00000130: 45b5 c53d c0f3 403c 1eec 02bd f0f2 a7bd
00000140: e23e 203d 0abf 3f3d 5d3e 9c3d ceeb 0a3d
00000150: e000 e9bc a10e c73d 26d2 193d 282b 213c
00000160: 242a b73c 52ff 353d 007a 50ba 28ea 11bc
00000170: b6c5 aabd 2056 76bb dc3d b6bd aae6 5f3d
00000180: 275e b23d 7c01 9abc 4011 bd3b b487 e73c
00000190: 8055 5a3c 7e10 6c3d a702 d3bd 1a70 4f3d
000001a0: b486 90bc fa47 d1bd b5f8 a03d 7cf7 e13c
000001b0: 990a 8a3d f356 ac3d 696d 913d 25a6 67bd
000001c0: f10d 8a3d 34fd 14bd 2efc 0c3d 480c a5bc
000001d0: e4ff b03c 0cab f23c ac45 bebc 010d d03d
000001e0: 5245 753d 0e4f 7d3d 7e6d 7a3d 847a 873c
000001f0: 7646 073d d0b2 883b cedb 163d d05b ddbc
00000200: 1ee8 10bd d4ce a9bc 6053 353c f476 883c
00000210: fe53 4e3d 68c5 66bc 5271 8ebd 28a7 85bd
00000220: 4c23 863c e69c 163d 8e7e a9bd 80e2 8fbd
00000230: 3493 d13c 2acd 7f3d 07db c2bd 8d48 c73d
00000240: cfd2 d13d c0cf afbd cada 92bd 4030 ddbd
00000250: 42e8 573d e083 cbbb 6b25 d73d c2f0 693d
00000260: c126 d03d 4aa6 0dbd 784d 95bd b7a8 ae3d
00000270: 48f9 9ebd bc4a 87bd 5c7d b2bc 4e33 373d
00000280: 80da 363a 6272 0f3d d2b0 aebd ce8d 02bd
00000290: b4e4 903c ebb7 5ebd 9afc 7f3d 5a2d 1b3d
000002a0: aebd 2c3d 8069 5f3c 84dc dabd f7ed ad3d
000002b0: ece9 24bd b65e 0b3d 9f64 60bd 8d21 d43d
000002c0: 4af7 9dbd ae8b 6e3d 6f82 46bd eaff 0b3d
000002d0: b07b f8bb 4002 7bbc 0d0e ca3d d076 8ebd
000002e0: f400 8cbc acfe d8bc 54a9 b2bc f035 6abc
000002f0: b6a9 0dbd aa3d 0c3d 933a de3d 4529 cb3d
00000300: 3e25 35bd d498 7abd d24f 80bd da9a 7c3d
00000310: 3667 1ebd dc3f a0bd 66eb abbd d341 58bd
00000320: 2828 bfbd c194 bd3d af0d ab3d 33c0 a93d
00000330: 941d 8f3c a08a bfbb 9320 c13d 1007 8cbc
00000340: 71ab ce3d 34b3 cdbd 9cb8 be3c ca97 4d3d
00000350: 98cf 2ebc fb57 cfbd e26a c3bd 1735 c3bd
00000360: ab43 cd3d d048 f0bb 6117 983d 5a42 123d
00000370: b68d 54bd cab5 423d 4d63 933d 075c 903d
00000380: 2704 933d 3088 83bd 83e6 d73d b87c 453c
00000390: ce15 773d 1027 33bd 3d55 9a3d d6e9 1e3d
000003a0: 6a25 5a3d 7874 64bd 8ead cebd bc3a cbbd
000003b0: e601 5f3d 2014 d3bb d824 8abd 3c3b eb3c
000003c0: fc9b cdbc 1421 acbd 9b6e 873d 3ac8 4f3d
000003d0: a0f1 1e3c 5ebe 90bd 9901 c23d 0043 a13b
000003e0: 0808 70bc c46c aabc 56dd 023d 52da 0b3d
000003f0: 8b0d 40bd d7f6 d5bd 3400 883c 9588 a03d
0.10626698 -0.067031115 -0.05665878 -0.064925924 -0.041879103 -0.080647066 0.07056571 -0.06613635
0.060682647 0.082742356 -0.0021048486 -0.08373076 -0.030183554 -0.10551483 -0.027342074 0.08682834
-0.0023850203 -0.07112795 -0.09958317 -0.094809465 0.0029075295 0.08244368 -0.043575175 0.0513312
0.07548662 -0.018923633 0.09956991 0.04923495 0.053118818 -0.019965686 -0.05165907 0.038924612
0.082095675 0.01441782 0.058699124 0.05475899 0.05097369 0.094324775 -0.08731271 0.023521148
0.0099691525 -0.021024957 0.045418136 0.015028879 -0.012013979 0.0012114942 0.10855093 -0.05791028
-0.055936642 -0.00047365576 -0.035812765 0.08991661 -0.027149625 -0.09069825 0.017329447 -0.07210399
-0.03459607 0.013470896 0.0050850213 -0.0776996 -0.03530501 0.08504159 -0.056902565 -0.0907085
-0.09111297 0.028977297 -0.06701833 -0.023401365 0.08847468 -0.035823084 -0.03449951 0.088713296
0.037895955 -0.041033037 0.022648953 0.09677035 0.09653715 0.0117768645 -0.03196346 -0.082006335
0.03912247 0.04681305 0.07629082 0.033916287 -0.0284428 0.09719587 0.03755393 0.009836949
0.022358961 0.044432946 -0.000795275 -0.008905925 -0.083384916 -0.0037587956 -0.088985175 0.054663338
0.087093644 -0.018799536 0.0057698786 0.02826295 0.013326049 0.057632916 -0.1030324 0.050644018
-0.017642356 -0.102188066 0.07859937 0.02758383 0.067403026 0.08415022 0.071009465 -0.056554932
0.0674094 -0.036374286 0.034420185 -0.020147458 0.021606393 0.029622577 -0.023226582 0.1015873
0.059880562 0.06184297 0.061139576 0.016537912 0.03302618 0.0041717067 0.036830716 -0.027021319
-0.035377614 -0.020728506 0.011067241 0.016658284 0.05037307 -0.014085151 -0.06955208 -0.06526023
0.016374253 0.036770724 -0.082760915 -0.07025623 0.025582887 0.06245152 -0.095144324 0.09730635
0.10245287 -0.08584547 -0.07170637 -0.108002186 0.052711733 -0.006210789 0.10505184 0.05711437
0.10163642 -0.034582414 -0.072901666 0.085282736 -0.077623904 -0.06606051 -0.021788292 0.044726662
0.0006975308 0.035021193 -0.085298195 -0.031873517 0.01768718 -0.054374617 0.06249676 0.037885047
0.04217308 0.013635993 -0.10686591 0.08492654 -0.040262148 0.03402587 -0.05478346 0.10357962
-0.07713182 0.058238678 -0.048464235 0.034179606 -0.007583104 -0.015320361 0.09865961 -0.069562554
-0.017090298 -0.026488625 -0.021809258 -0.014295086 -0.034585677 0.034238495 0.10851016 0.09919981
-0.04422497 -0.061180905 -0.062652245 0.061671115 -0.03867265 -0.0782468 -0.08394508 -0.05279715
-0.09333831 0.09256888 0.08352219 0.08288612 0.017470159 -0.005845383 0.09430041 -0.017093211
0.100912936 -0.10043946 0.023281388 0.050193585 -0.010669611 -0.10124203 -0.09541871 -0.095316105
0.10022672 -0.0073328987 0.07426334 0.03570781 -0.05189296 0.04753665 0.071966745 0.07048803
0.07178526 -0.0642246 0.105420135 0.012053661 0.06032353 -0.043738425 0.07535789 0.038797222
0.053258337 -0.055775136 -0.10091697 -0.09923312 0.05444517 -0.006441608 -0.06745309 0.028714769
-0.025098793 -0.08404747 0.06612893 0.05072806 0.009701163 -0.0706756 0.09472961 0.004921317
-0.014650352 -0.020803817 0.031949364 0.034143753 -0.046887916 -0.104474716 0.01660166 0.07838551

fc3.bias f4 [10]
00000000: d61d a7bd 9cb2 40bd 7817 34bd 8dbb 8a3d
00000010: 9418 2ebd 4975 c93d 2a3a 52bd 625d 533d
00000020: 32e7 cabd 939b 5fbd
-0.08159988 -0.047045335 -0.043967694 0.06774054 -0.04250391 0.098368235 -0.051325 0.05160273
-0.09907378 -0.054591727
